…
W tensorflow/core/platform/cpu_feature_guard.cc:45] The TensorFlow library wasn't compiled to use AVX2 instructions, but these are available on your machine and could speed up CPU computations.
W tensorflow/core/platform/cpu_feature_guard.cc:45] The TensorFlow library wasn't compiled to use FMA instructions, but these are available on your machine and could speed up CPU computations.
_________________________________________________________________
Layer (type)                 Output Shape              Param #
=================================================================
average_pooling2d_1 (Average (None, 384, 525, 3)       0
_________________________________________________________________
conv2d_1 (Conv2D)            (None, 382, 523, 128)     3584
_________________________________________________________________
max_pooling2d_1 (MaxPooling2 (None, 191, 261, 128)     0
_________________________________________________________________
conv2d_2 (Conv2D)            (None, 189, 259, 128)     147584
_________________________________________________________________
max_pooling2d_2 (MaxPooling2 (None, 94, 129, 128)      0
_________________________________________________________________
conv2d_3 (Conv2D)            (None, 92, 127, 64)       73792
_________________________________________________________________
max_pooling2d_3 (MaxPooling2 (None, 46, 63, 64)        0
_________________________________________________________________
flatten_1 (Flatten)          (None, 185472)            0
_________________________________________________________________
dense_1 (Dense)              (None, 32)                5935136
_________________________________________________________________
dropout_1 (Dropout)          (None, 32)                0
_________________________________________________________________
dense_2 (Dense)              (None, 2)                 66
=================================================================
Total params: 6,160,162.0
Trainable params: 6,160,162.0
Non-trainable params: 0.0
_________________________________________________________________
FOLD NUMBER: 0
TRAINING XTRAIN [j]: /scratch/tkyaw1/outfile4.npz
Epoch 1/10
 32/500 [>.............................] - ETA: 378s - loss: 0.6928 - acc: 0.5625
…
