…
W tensorflow/core/platform/cpu_feature_guard.cc:45] The TensorFlow library wasn't compiled to use SSE4.2 instructions, but these are available on your machine and could speed up CPU computations.
W tensorflow/core/platform/cpu_feature_guard.cc:45] The TensorFlow library wasn't compiled to use AVX instructions, but these are available on your machine and could speed up CPU computations.
_________________________________________________________________
Layer (type)                 Output Shape              Param #   
=================================================================
average_pooling2d_1 (Average (None, 384, 525, 3)       0         
_________________________________________________________________
conv2d_1 (Conv2D)            (None, 382, 523, 128)     3584      
_________________________________________________________________
max_pooling2d_1 (MaxPooling2 (None, 191, 261, 128)     0         
_________________________________________________________________
conv2d_2 (Conv2D)            (None, 189, 259, 64)      73792     
_________________________________________________________________
max_pooling2d_2 (MaxPooling2 (None, 94, 129, 64)       0         
_________________________________________________________________
flatten_1 (Flatten)          (None, 776064)            0         
_________________________________________________________________
dense_1 (Dense)              (None, 32)                24834080  
_________________________________________________________________
dropout_1 (Dropout)          (None, 32)                0         
_________________________________________________________________
dense_2 (Dense)              (None, 2)                 66        
=================================================================
Total params: 24,911,522.0
Trainable params: 24,911,522.0
Non-trainable params: 0.0
_________________________________________________________________
FOLD NUMBER: 0
xtrain: ['/scratch/tkyaw1/outfile1.npz' '/scratch/tkyaw1/outfile2.npz']
trainLabels: ['/scratch/tkyaw1/labels1.npz' '/scratch/tkyaw1/labels2.npz']
xtest: ['/scratch/tkyaw1/outfile0.npz']
…
