…
W tensorflow/core/platform/cpu_feature_guard.cc:45] The TensorFlow library wasn't compiled to use SSE4.2 instructions, but these are available on your machine and could speed up CPU computations.
W tensorflow/core/platform/cpu_feature_guard.cc:45] The TensorFlow library wasn't compiled to use AVX instructions, but these are available on your machine and could speed up CPU computations.
_________________________________________________________________
Layer (type)                 Output Shape              Param #   
=================================================================
average_pooling2d_1 (Average (None, 250, 250, 3)       0         
_________________________________________________________________
conv2d_1 (Conv2D)            (None, 248, 248, 128)     3584      
_________________________________________________________________
max_pooling2d_1 (MaxPooling2 (None, 124, 124, 128)     0         
_________________________________________________________________
conv2d_2 (Conv2D)            (None, 122, 122, 128)     147584    
_________________________________________________________________
max_pooling2d_2 (MaxPooling2 (None, 61, 61, 128)       0         
_________________________________________________________________
conv2d_3 (Conv2D)            (None, 59, 59, 64)        73792     
_________________________________________________________________
max_pooling2d_3 (MaxPooling2 (None, 29, 29, 64)        0         
_________________________________________________________________
flatten_1 (Flatten)          (None, 53824)             0         
_________________________________________________________________
dense_1 (Dense)              (None, 32)                1722400   
_________________________________________________________________
dropout_1 (Dropout)          (None, 32)                0         
_________________________________________________________________
dense_2 (Dense)              (None, 2)                 66        
=================================================================
Total params: 1,947,426.0
Trainable params: 1,947,426.0
Non-trainable params: 0.0
_________________________________________________________________
Epoch 1/50
  32/1000 [..............................] - ETA: 254s - loss: 0.6922 - acc: 0.5000
…
